Assets/Scripts/Monster AI/James RL/Legacy/Brains/BasicMonsterVision.onnx (onnx, 104338 bytes, 7 tensors)

network_body._body_endoder.seq_layers.0.weight f4 [128, 61]
0.03447084 0.1679852 -0.05558952 0.024049608 -0.0435243 -0.041698273 -0.16642626 0.008040046
-0.04325602 0.03823369 -0.27244154 -0.030293899 -0.07542019 0.044095557 -0.0532679 -0.035405178
-0.18785612 0.01717447 -0.17453828 -0.1201545 -0.09606545 -0.18046269 0.021734174 -0.19096798
-0.060576025 0.014381445 -0.08222214 -0.14900106 0.086176604 -0.23662035 -0.21851955 0.09910309
-0.03337422 0.15219383 -0.032108128 0.15411015 -0.08314121 0.108548544 -0.068211086 -0.12630211
0.15137668 0.02975436 0.060671348 -0.25920472 -0.09538987 0.11148075 -0.022346491 -0.19779488
0.065430716 0.016842311 0.09255124 0.090504 -0.22750135 0.1904872 -0.058295228 0.047974557
0.06971591 -0.00514506 -0.025203926 0.06045635 -0.12883689 -0.114461236 -0.001893903 0.18455131
0.2576977 -0.0465076 0.0332009 0.32263714 -0.07778121 0.017584234 -0.006213232 0.048968248
0.19545797 -0.105808645 0.13350448 0.016831 -0.067062005 -0.103134535 0.08234464 0.033524346
-0.26035833 0.039355163 -0.09009708 0.021192577 -0.22350654 0.096987784 0.22672834 0.12769826
-0.08064424 -0.08729234 0.09813098 -0.07151373 -0.14803205 0.15830778 -0.033608817 0.22669414
0.04002478 -0.15817428 0.12621094 -0.06596541 -0.102701426 0.22565988 -0.006714823 -0.07950905
0.07137265 -0.060332704 0.33180928 0.074157685 0.05090032 0.027579203 -0.06486812 0.109553605
-0.08619614 -0.010437462 0.1143978 -0.017010782 -0.2059234 -0.31364346 -0.16727431 0.22155085
0.04138026 0.035399046 -0.1783789 0.105364196 -0.07765129 0.16230418 -0.02503886 0.0425363
0.31293812 0.1467504 0.043189287 -0.07229544 -0.20135684 0.097453296 -0.17581719 -0.1781194
-0.15972158 -0.08986126 -0.09677719 -0.3133427 -0.28921178 -0.25080478 0.15608844 0.050950527
-0.14478405 0.06859131 -0.012010844 -0.15095726 -0.08853679 -0.013305109 -0.291058 -0.07964721
0.016161213 -0.014197694 0.16741194 0.10644063 0.04052507 0.03936404 0.12413136 -0.020165116
0.01843444 -0.0006172808 -0.063848294 -0.014208799 0.08100261 -0.21403389 -0.025971593 -0.18275276
0.108858824 -0.08675761 -0.16067013 -0.23774852 -0.068026975 0.06904806 0.16312435 0.12112653
0.10290603 -0.0657054 0.08656695 0.05285691 -0.0709502 -0.10237819 0.046824057 -0.1261138
0.12201923 0.1623231 0.25903454 -0.31560144 -0.07192403 -0.015311977 -0.04293702 -0.069084845
0.13796806 0.08142726 0.046229713 0.037649084 0.045755822 -0.11849992 -0.041549 -0.046970394
-0.117209874 0.08130384 -0.20207338 0.12839198 0.016925326 0.25336036 -0.112349145 -0.100463614
0.097850636 0.03668843 0.07169897 -0.0014303772 -0.055559725 0.045389764 -0.16494021 0.2964913
0.1391913 -0.07903536 -0.087185346 -0.024370264 0.03460569 0.015298924 -0.15651405 -0.15286201
-0.08402361 0.24532075 -0.0025386775 0.09815947 -0.014964746 -0.15488122 -0.16252232 -0.21419257
0.015826859 0.10178633 0.13762182 0.06692317 0.19522706 -0.06890679 -0.026500026 -0.05536831
-0.028676802 -0.018072734 -0.08796547 0.15184218 -0.1661797 -0.017133076 -0.1650132 0.15385307
0.094171666 -0.08691315 -0.016254576 0.16703372 -0.15353703 0.17638089 -0.0721203 -0.16688874
00000000: 4c31 0d3d 5004 2c3e d6b1 63bd af03 c53c
00000010: 8946 32bd cfcb 2abd a56b 2abe 66ba 033c
00000020: 392d 31bd ee9a 1c3d 757d 8bbe e92a f8bc
00000030: e775 9abd 8b9d 343d 712f 5abd 0505 11bd
00000040: 5b5d 40be 79b1 8c3c 2aba 32be 9013 f6bd
00000050: f6bd c4bd 36cb 38be de0b b23c 1c8d 43be
00000060: 911e 78bd 27a0 6b3c 1564 a8bd bc93 18be
00000070: 5c7d b03d 9b4c 72be 97c3 5fbe 90f6 ca3d
00000080: 68b3 08bd b3d8 1b3e d083 03bd 0dcf 1d3e
00000090: f045 aabd b34e de3d 41b2 8bbd 5755 01be
000000a0: 7d02 1b3e 6abf f33c 8582 783d 7bb6 84be
000000b0: c45b c3bd 0550 e43d fd0f b7bc be8a 4abe
000000c0: 8a00 863d e3f8 893c 818b bd3d 295a b93d
000000d0: 1df6 68be 140f 433e fac6 6ebd f880 443d
000000e0: 37c7 8e3d e497 a8bb 7778 cebc 14a1 773d
000000f0: d1ed 03be a76a eabd d73c f8ba 05fb 3c3e
00000100: f4f0 833e c17e 3ebd abfd 073d b230 a53e
00000110: c14b 9fbd d00c 903c 5e98 cbbb ee92 483d
00000120: 2226 483e 34b2 d8bd 66b5 083e 2ae1 893c
00000130: ce57 89bd 3338 d3bd 4ea4 a83d d350 093d
00000140: b04d 85be e132 213d d184 b8bd 0e9c ad3c
00000150: e6de 64be 88a1 c63d 792b 683e 55c3 023e
00000160: cf28 a5bd 54c6 b2bd e5f8 c83d ca75 92bd
00000170: b795 17be 6f1b 223e 66a9 09bd 8222 683e
00000180: 06f1 233d 70f8 21be 713d 013e df18 87bd
00000190: 2055 d2bd 6213 673e 0508 dcbb a4d5 a2bd
000001a0: d32b 923d 6d1f 77bd e8e2 a93e fcdf 973d
000001b0: db7c 503d c8ed e13c 94d9 84bd a45d e03d
000001c0: 9a87 b0bd e301 2bbc 6549 ea3d 325a 8bbc
000001d0: 95dd 52be e095 a0be f549 2bbe 3ade 623e
000001e0: 597e 293d 97fe 103d f5a8 36be 2fc9 d73d
000001f0: a407 9fbd 1133 263e 4c1e cdbc 8b3a 2e3d
00000200: 6d39 a03e bd45 163e 40e7 303d a20f 94bd
00000210: 7d30 4ebe 9895 c73d 6c09 34be ef64 36be
00000220: 0e8e 23be 2e09 b8bd 1f33 c6bd 746e a0be
00000230: 9113 94be 7c69 80be a6d5 1f3e 80b1 503d
00000240: 4542 14be 9a79 8c3d 22c9 44bc 8a94 1abe
00000250: c752 b5bd acfd 59bc 8e05 95be 141e a3bd
00000260: 8564 843c 729d 68bc 096e 2b3e 8cfd d93d
00000270: 9efd 253d 303c 213d 9538 fe3d 5031 a5bc
00000280: d303 973c 03d1 21ba e5c2 82bd 06cc 68bc
00000290: b2e4 a53d b32b 5bbe 61c2 d4bc 8a23 3bbe
000002a0: 60f1 de3d f9ad b1bd b686 24be 5974 73be
000002b0: ba51 8bbd 1269 8d3d 120a 273e 3011 f83d
000002c0: 66c0 d23d 8e90 86bd 034a b13d 7d80 583d
000002d0: 574e 91bd a8ab d1bd 95ca 3f3d fa23 01be
000002e0: 38e5 f93d 0738 263e 2da0 843e 8396 a1be
000002f0: e84c 93bd 16df 7abc bbde 2fbd 5b7c 8dbd
00000300: 8047 0d3e 56c3 a63d 5e5b 3d3d ed35 1a3d
00000310: 756a 3b3d 16b0 f2bd 492f 2abd 0764 40bd
00000320: bb0b f0bd a182 a63d 53ec 4ebe 3079 033e
00000330: fba6 8a3c 73b8 813e 4f17 e6bd debf cdbd
00000340: ea65 c83d 9b46 163d e9d6 923d 7f7b bbba
00000350: 9892 63bd 9eea 393d 16e6 28be b5cd 973e
00000360: 2a88 0e3e 4add a1bd 3b8e b2bd 26a4 c7bc
00000370: b2be 0d3d 57a8 7a3c 3845 20be dc87 1cbe
00000380: 9214 acbd 5d35 7b3e f15f 26bb d507 c93d
00000390: b22e 75bc 2f99 1ebe 406c 26be 4c55 5bbe
000003a0: 54a7 813c 5a75 d03d bcec 0c3e 040f 893d
000003b0: 9ae9 473e 011f 8dbd 9516 d9bc e2c9 62bd
000003c0: 9deb eabc 450d 94bc 3e27 b4bd 847c 1b3e
000003d0: 032b 2abe aa5a 8cbc 38f9 28be a98b 1d3e
000003e0: 13dd c03d 86ff b1bd 5128 85bc e30a 2b3e
000003f0: d038 1dbe 319d 343e cfb3 93bd e2e4 2abe

network_body._body_endoder.seq_layers.0.bias f4 [128]
0.024628706 -0.0018235615 0.0015482212 0.012004456 0.042194877 -0.0023105568 0.010746474 -0.0023088718
0.027587418 -0.0047742883 0.015657423 0.028369674 0.016538637 0.022895511 0.047541495 0.0230395
0.038289778 -0.015065045 0.01053389 0.005497218 0.028865015 0.02587861 -0.0030871737 0.0516674
0.021845864 0.009412531 0.019866655 -0.015533173 -0.0142555395 0.006112521 0.001959532 0.0016535394
-0.005483556 0.008650315 0.01566903 -0.01906493 0.019026114 0.02413622 0.025018267 0.012095466
0.025639705 0.010489233 0.013928438 0.017513053 0.007434086 0.035570275 0.00060349645 0.010337075
0.042713784 0.0013229763 0.010839906 -0.008174393 0.008911376 0.009273667 0.020991392 0.02160128
0.005164149 0.02234484 0.022543522 -0.0053965645 0.0058156257 0.016176792 0.009801224 -0.0022239937
0.020202732 -0.016593028 0.0036179337 0.0306565 -0.0037206179 -0.0052089756 -0.008399667 -0.0111668
0.0042297873 0.025376007 0.0050349697 -0.027873013 -0.0062514255 0.008737133 0.039424807 0.031708993
0.0037847082 0.036024556 -0.012027778 0.008637545 0.007486254 0.006855792 0.016402068 0.006947971
-0.00741404 0.030563418 0.008074976 0.017605593 0.008267289 -0.013910849 0.003260872 0.001181748
0.01742005 0.027598714 0.01838127 -0.0017653741 0.01892284 0.0056445026 0.020119013 -0.017679622
-0.035708584 -0.001920016 0.03987214 -0.022412645 -0.009342793 0.035076313 0.031120794 0.026871856
0.018022142 0.0041158795 0.01959865 -0.006251571 0.018439911 0.011187887 -0.018198833 0.010733092
-0.0005988571 0.0145025365 -0.013946797 0.01633182 0.012753002 -0.0062943664 0.027800608 0.014193019
00000000: 24c2 c93c 9204 efba afed ca3a 56ae 443c
00000010: 89d4 2c3d b66c 17bb fb11 303c 7150 17bb
00000020: 02ff e13c a271 9cbb ff43 803c 8567 e83c
00000030: 097c 873c 5e8f bb3c dfba 423d 55bd bc3c
00000040: bed5 1c3d 61d3 76bc 5696 2c3c 0222 b43b
00000050: 5376 ec3c 61ff d33c 2e52 4abb 32a1 533d
00000060: 19f6 b23c 0437 1a3c 65bf a23c da7e 7ebc
00000070: 1190 69bc 8b4b c83b 7e6b 003b 93bb d83a
00000080: 67af b3bb 0dba 0d3c 565c 803c 0e2e 9cbc
00000090: a7dc 9b3c 52b9 c53c 1cf3 cc3c 102c 463c
000000a0: 5c0a d23c 08db 2b3c 1a34 643c 8977 8f3c
000000b0: a299 f33b 23b2 113d f633 1e3a d65c 293c
000000c0: a6f4 2e3d b867 ad3a dc99 313c e4ed 05bc
000000d0: 0501 123c 94f0 173c 24f6 ab3c 2bf5 b03c
000000e0: 0638 a93b 870c b73c 31ad b83c aad5 b0bb
000000f0: 0191 be3b 3185 843c 5095 203c 6cc0 11bb
00000100: 3380 a53c 1aee 87bc db1a 6d3b 5723 fb3c
00000110: 9cd5 73bb 0eb0 aabb c29e 09bc f4f4 36bc
00000120: 079a 8a3b 58e1 cf3c 63fc a43b f255 e4bc
00000130: c2d8 ccbb 3126 0f3c e87b 213d 4ae1 013d
00000140: de08 783b 7c8e 133d 2810 45bc 7d84 0d3c
00000150: 404f f53b 8da6 e03b a15d 863c ceab e33b
00000160: 7af1 f2bb 2260 fa3c e74c 043c 9b39 903c
00000170: 8673 073c 54ea 63bc 5bb4 553b e2e4 9a3a
00000180: 7eb4 8e3c b316 e23c 5194 963c 2064 e7ba
00000190: 1204 9b3c 85f5 b83b a1d0 a43c dbd4 90bc
000001a0: 2a43 12bd 0ca9 fbba f850 233d b99a b7bc
000001b0: 8412 19bc 2eac 0f3d 09f1 fe3c 5e22 dc3c
000001c0: 2ca3 933c 80de 863b 598d a03c fad9 ccbb
000001d0: 4c0f 973c 664d 373c b815 95bc dad9 2f3c
000001e0: 9ffc 1cba 0c9c 6d3c 1b81 64bc 4fca 853c
000001f0: f8f1 503c f940 cebb 1abe e33c d689 683c

network_body._body_endoder.seq_layers.2.weight f4 [128, 128]
0.06132681 -0.039319154 0.024618 -0.011642708 -0.010169244 0.05665512 0.033832315 0.15452659
0.22503419 0.19021666 -0.14769156 -0.065380044 0.14509352 0.020342557 0.049066126 0.028155597
-0.084525645 -0.0503496 0.014891082 -0.0630347 0.006324255 0.025588915 0.12110466 0.058571067
-0.0077134054 -0.0037449473 0.13954923 -0.09448307 -0.031785615 0.082673915 -0.016409807 0.10197698
-0.046646986 0.22307827 -0.039382905 -0.077814706 -0.16919775 -0.043697514 -0.094693005 -0.03191444
-0.046817236 -0.0010568041 -0.015576957 -0.043449286 0.09094027 -0.08903183 -0.106686525 -0.027896881
0.06710213 -0.09192467 -0.12463724 -0.028138468 0.050884385 0.0526311 0.08143917 0.19492191
-0.18756382 0.04193649 -0.12807064 0.020157466 -0.021433176 -0.05689339 0.030661808 -0.049128342
0.060282104 0.07052936 0.09553522 0.023818215 -0.003904795 -0.050219435 0.028545838 0.044747006
-0.016048871 -0.037473522 -0.07447943 -0.019510057 -0.00417574 0.003640519 -0.2076542 -0.07010388
-0.025084725 0.19700877 -0.059991438 0.057228386 -0.009681141 0.009306227 -0.076598845 -0.057550065
0.028209519 0.08329863 0.10975521 -0.03155547 0.05071654 -0.07793224 -0.054700285 -0.08707334
0.06934262 0.10181539 -0.03564121 0.0851463 0.058735654 -0.01717915 0.17994037 0.08511091
0.0452428 0.04548669 0.05558168 -0.019348627 -0.03288304 0.047595248 -0.07392117 -0.04581802
-0.0011518761 -0.066547714 -0.08676802 -0.11201977 0.07782428 -0.20528615 0.058453906 0.049239527
-0.025611514 -0.012611211 -0.059562244 0.07087678 -0.07036592 -0.12492323 0.026692782 -0.015571243
0.20952868 0.062632255 -0.01692094 0.15003458 -0.025201527 -0.051679663 -0.011988126 0.03380116
-0.2064943 -0.049338285 -0.023098685 -0.21128608 0.0902229 0.078275226 0.08324547 -0.0047015334
-0.12677842 -0.0045163254 0.14057045 0.030078711 0.119389325 -0.042530574 -0.04670076 -0.013317839
0.029207405 0.032362893 -0.03135489 -0.11055349 -0.02662335 -0.020716162 -0.06426122 -0.052849643
-0.09379657 0.0035843893 0.0334239 -0.033872668 0.15801303 0.077641845 0.07212638 -0.1096297
-0.013040708 -0.115173355 0.003737482 -0.014192341 0.04559178 -0.02663052 0.04136615 -0.11348792
0.01764215 0.15835626 -0.063321285 0.08467553 0.046327725 -0.0819735 -0.0575889 0.027177515
0.00473666 0.0074788863 -0.03167299 -0.025111845 0.04343512 -0.12833573 -0.110673144 -0.02252883
0.12233728 0.025553195 0.15374003 -0.032480147 0.04250343 -0.0016203331 -0.02066912 0.10070526
-0.05938383 -0.02501801 -0.039032057 -0.046097018 -0.012098825 -0.06581248 -0.03161942 -0.1866771
0.15686277 -0.0033149873 -0.1489242 0.039139707 -0.03910716 0.019360587 0.20357867 -0.033452395
-0.0016273954 -0.18207599 0.012845667 0.14606762 -0.14751963 0.14113262 -0.11095566 -0.048983738
0.026016446 -0.040220775 0.1618421 0.10901409 -0.009318143 -0.06807967 -0.13819772 0.05175002
0.03155724 0.15239246 -0.08748646 -0.04920203 0.01343248 -0.14731276 -0.024474062 -0.14046925
-0.101853594 -0.15641361 0.010757707 -0.041728117 -0.005698773 0.0050587915 -0.06401624 -0.12942964
-0.1235838 -0.047170088 0.0613258 -0.043006808 0.025693396 -0.089547545 -0.17543265 -0.07999905
00000000: d231 7b3d 1f0d 21bd b0ab c93c 0fc1 3ebc
00000010: e79c 26bc 330f 683d c193 0a3d 383c 1e3e
00000020: 5d6f 663e 28c8 423e 753c 17be f9e5 85bd
00000030: 6593 143e 6fa5 a63c 90f9 483d 91a6 e63c
00000040: c81b adbd 623b 4ebd baf9 733c 5618 81bd
00000050: b23b cf3b d89f d13c b805 f83d 37e8 6f3d
00000060: bcc0 fcbb ca6d 75bb fee5 0e3e 5780 c1bd
00000070: a231 02bd f150 a93d dc6d 86bc 4fd9 d03d
00000080: e910 3fbd a16e 643e f84f 21bd 515d 9fbd
00000090: 2d42 2dbe 2afc 32bd 68ee c1bd b7b8 02bd
000000a0: 6ec3 3fbd 7684 8aba 7e36 7fbc e1f7 31bd
000000b0: e43e ba3d 5256 b6bd 777e dabd 0088 e4bc
000000c0: d76c 893d 0043 bcbd cf41 ffbd a582 e6bc
000000d0: 256c 503d b593 573d 94c9 a63d 9c99 473e
000000e0: bb10 40be 99c5 2b3d f324 03be 4521 a53c
000000f0: a194 afbc 0b09 69bd 792e fb3c cd3a 49bd
00000100: 5eea 763d b271 903d f8a7 c33d 6b1e c33c
00000110: 97e7 7fbb e5b2 4dbd f6d8 e93c a348 373d
00000120: ec78 83bc d67d 19bd ac88 98bd 8ed3 9fbc
00000130: a5d4 88bb c695 6e3b 4da3 54be 9f92 8fbd
00000140: 7b7e cdbc abbc 493e 95b9 75bd 5068 6a3d
00000150: a69d 1ebc 2579 183c dbdf 9cbd 9eb9 6bbd
00000160: a617 e73c 7998 aa3d 57c7 e03d 4f40 01bd
00000170: 26bc 4f3d f09a 9fbd 680d 60bd 8253 b2bd
00000180: 8103 8e3d 9684 d03d 84fc 11bd 2f61 ae3d
00000190: cc94 703d 4abb 8cbc 4a42 383e a14e ae3d
000001a0: 8450 393d 4050 3a3d 9ea9 633d 0381 9ebc
000001b0: 5eb0 06bd 3cf3 423d fb63 97bd adab 3bbd
000001c0: 8cfa 96ba 2b4a 88bd 6fb3 b1bd 9f6a e5bd
000001d0: 5662 9f3d 8836 52be 5d6d 6f3d 63af 493d
000001e0: 3dcf d1bc 419f 4ebc 8af7 73bd d827 913d
000001f0: 021c 90bd c0d7 ffbd d2aa da3c 871e 7fbc
00000200: b08e 563e 5745 803d c89d 8abc aaa2 193e
00000210: 6f73 cebc 0eae 53bd d869 44bc 1673 0a3d
00000220: 3e73 53be f116 4abd 7439 bdbc 615b 58be
00000230: c9c6 b83d c34e a03d 9a7c aa3d 520f 9abb
00000240: 34d2 01be affd 93bb b3f1 0f3e a167 f63c
00000250: 6482 f43d 8a34 2ebd 4c49 3fbd 1133 5abc
00000260: 5e44 ef3c f48e 043d fc6d 00bd de69 e2bd
00000270: 3619 dabc f1b4 a9bc 639b 83bd de78 58bd
00000280: 6b18 c0bd 13e8 6a3b 80e7 083d 11be 0abd
00000290: 2bce 213e b002 9f3d ffb6 933d 8985 e0bd
000002a0: b2a8 55bc 02e0 ebbd 8bf0 743b fe86 68bc
000002b0: 72be 3a3d 4028 dabc 8d6f 293d 5b6c e8bd
000002c0: 4586 903c 2528 223e 97ae 81bd 5d6a ad3d
000002d0: 24c2 3d3d b9e1 a7bd 57e2 6bbd 61a3 de3c
000002e0: fc35 9b3b 7211 f53b 8abb 01bd 5bb7 cdbc
000002f0: 06e9 313d 716a 03be 9aa8 e2bd 628e b8bc
00000300: f88b fa3d ef54 d13c 076e 1d3e e709 05bd
00000310: 1418 2e3d 5b61 d4ba 4952 a9bc 8f3e ce3d
00000320: 753c 73bd 92f2 ccbc 14e0 1fbd 3ad0 3cbd
00000330: 263a 46bc b2c8 86bd 5d83 01bd 4828 3fbe
00000340: a2a0 203e 4240 59bb 967f 18be f550 203d
00000350: d42e 20bd 189a 9e3c ed76 503e 6105 09bd
00000360: 544e d5ba 2172 3abe a276 523c c092 153e
00000370: 630f 17be 1285 103e b93c e3bd 2ca3 48bd
00000380: 7120 d53c 8abe 24bd efb9 253e c742 df3d
00000390: 20ab 18bc 5b6d 8bbd b483 0dbe d4f7 533d
000003a0: 2a42 013d c50c 1c3e 1a2c b3bd 1188 49bd
000003b0: e813 5c3c 28d9 16be d47d c8bc 2cd7 0fbe
000003c0: 9e98 d0bd e42a 20be 1841 303c 1aeb 2abd
000003d0: c6bc babb 38c4 a53b f21a 83bd 3489 04be
000003e0: 8119 fdbd 6c35 41bd c330 7b3d e827 30bd
000003f0: f57a d23c b464 b7bd 9ea4 33be 8bd6 a3bd

network_body._body_endoder.seq_layers.2.bias f4 [128]
0.015515225 -0.0021940542 0.0024790696 0.028960517 -0.0007916492 -0.0009680255 -0.00030235428 0.016122244
-0.003763251 0.0069164378 0.008279706 -0.015115593 0.009440928 -0.0024106295 0.016560376 -0.0074526626
0.020211771 -0.0040409938 0.03074562 0.013387372 0.011358737 -0.013963926 0.010141806 0.021619443
-0.0068751257 -0.0054125586 0.00232866 0.005339091 -0.011252523 -0.009757024 -0.014412657 0.002167109
0.007844397 0.021794321 0.0027666127 0.01591369 0.012121458 0.01164941 0.0027089838 -0.0103800325
0.009088102 -0.0022070804 -0.0064511537 0.02098476 0.0059913355 -0.0023972972 0.013196902 -0.014320072
0.019920738 0.0124678705 0.010348263 0.0038483115 0.0049048034 -0.0016590495 0.003006405 -0.0026301744
0.022456145 0.005272139 0.029979238 0.007867139 0.011271 0.013663417 0.015797315 0.025765074
0.0053341235 -0.00038006387 0.0014298585 0.02321107 0.022843406 -0.0049191057 0.021252666 0.009047665
0.014164814 0.008834642 0.024229322 0.015568639 -0.0019086957 -0.007665568 0.01640356 0.00041525066
0.009490052 0.002407332 0.0004656236 0.000643384 -0.006066344 0.009921807 0.029092053 0.00036859186
0.0007879164 -0.006946345 -0.005951795 0.0016364361 0.03804984 0.020438554 0.0038032504 0.0014756991
0.0024981261 0.017410107 0.021386113 0.0091936635 0.0056724446 0.0029532134 0.014432412 0.0033377656
0.010033387 0.00265021 0.000118346456 0.0061065187 0.014614893 0.008375708 0.01311624 0.0065823933
0.023103572 -0.0025804169 0.0046248077 0.005916762 0.005592631 0.015049725 -0.015760304 0.016882667
-0.0020859127 0.0159603 0.017187351 -0.012688218 0.01153788 0.0073106214 0.01088617 0.012069987
00000000: 9233 7e3c 1fca 0fbb e377 223b 9b3e ed3c
00000010: ae86 4fba 17c3 7dba 4e85 9eb9 cc12 843c
00000020: e0a0 76bb 49a3 e23b 9ba7 073c 64a7 77bc
00000030: 1fae 1a3c a7fb 1dbb a0a9 873c 7735 f4bb
00000040: 2893 a53c 506a 84bb 3dde fb3c b556 5b3c
00000050: ff19 3a3c f3c8 64bc d129 263c 421b b13c
00000060: bc48 e1bb d55b b1bb 6f9c 183b 8bf3 ae3b
00000070: 815c 38bc eddb 1fbc 1123 6cbc 0e06 0e3b
00000080: c985 003c 018a b23c 0f50 353b 6d5d 823c
00000090: 1499 463c 2bdd 3e3c 3589 313b 0311 2abc
000000a0: 43e6 143c aaa4 10bb 3364 d3bb 3be8 ab3c
000000b0: f752 c43b f91b 1dbb d237 583c bc9e 6abc
000000c0: d130 a33c 0a46 4c3c c38b 293c f433 7c3b
000000d0: 79b8 a03b 7774 d9ba 1b07 453b 015f 2cbb
000000e0: f3f5 b73c e8c1 ac3b 0597 f53c 2ce5 003c
000000f0: 00aa 383c 86dc 5f3c 5f69 813c 4711 d33c
00000100: dfc9 ae3b 4f43 c7b9 176a bb3a 2425 be3c
00000110: 1822 bb3c 7330 a1bb 121a ae3c a83c 143c
00000120: 8913 683c 2dbf 103c 927c c63c 9b13 7f3c
00000130: 332d faba 722f fbbb c260 863c 00b6 d939
00000140: 2a7c 1b3c 54c4 1d3b f11e f439 c5a8 283a
00000150: 2fc8 c6bb 138f 223c 7552 ee3c 903f c139
00000160: 2d8c 4e3a 2a9e e3bb 4607 c3bb af7d d63a
00000170: 26da 1b3d c16e a73c f43f 793b 3f6c c13a
00000180: 9ab7 233b a49f 8e3c ee31 af3c 05a1 163c
00000190: eadf b93b b38a 413b ec75 6c3c 6abe 5a3b
000001a0: 1363 243c 25af 2d3b c530 f838 3119 c83b
000001b0: 4e73 6f3c 443a 093c 7fe5 563c 1eb1 d73b
000001c0: b443 bd3c 361c 29bb b38b 973b 66e1 c13b
000001d0: 6442 b73b 1f93 763c c11b 81bc 854d 8a3c
000001e0: cfb3 08bb 2dbf 823c 7dcc 8c3c 3ee2 4fbc
000001f0: 6009 3d3c f08d ef3b e85b 323c 32c1 453c

action_model._continuous_distribution.log_sigma f4 [1, 4]
-0.054356184 -0.013456163 -0.007419113 -0.028418059
00000000: 97a4 5ebd 3d77 5cbc 081c f3bb fdcc e8bc

action_model._continuous_distribution.mu.weight f4 [4, 128]
0.023405693 0.036163364 -0.062930025 0.014385742 -0.034932192 -0.019709976 0.03325867 0.059641406
-0.042479865 -0.007817467 0.011154214 -0.00904058 -0.010353663 0.028514635 0.023745634 -0.02766773
-0.05708467 -0.02537621 0.03599925 -0.07561891 -0.10863602 0.014118173 -0.07240359 0.050396852
-0.020595115 -0.0063450006 -0.0012541517 -0.05016956 0.01617766 -0.018201377 0.01208612 0.051010586
-0.07119187 0.035562586 0.0664983 -0.02805232 -0.09504324 0.028397396 -0.07673071 -0.010998861
-0.04794746 -0.030534396 -0.040797748 -0.07689596 0.025399506 -0.019423569 -0.013196283 0.006896581
0.01401937 5.5094475e-05 0.02290741 0.008942853 0.0018288497 0.012147183 -0.009587682 -0.012941839
0.03499824 -0.019573681 -0.01203005 0.0049847285 0.011037323 0.049895465 -0.048752427 -0.027427925
-0.010004178 -0.030337615 -0.030361889 -0.08033746 0.05234059 -0.03482098 -0.057733182 -0.068229645
-0.006350777 -0.10233247 -0.054124754 -0.003606228 -0.023030277 0.02456552 -0.085294165 -0.055801466
0.06667219 -0.0060321493 0.006369042 -0.04460853 -0.03269472 0.08314859 -0.0008688788 -0.050620783
0.05524426 0.011360065 -0.0017464643 -0.0024548152 -0.016113952 0.1195039 -0.033138126 0.019988932
0.0495295 -0.057863895 0.025901534 0.0956934 -0.016490422 -0.027913764 -0.07666757 -0.00036235104
0.08983944 -0.040161304 -0.07575858 0.043998994 -0.034464892 0.008598711 0.05088429 -0.042492725
0.062241364 -0.025913877 -0.083643146 -0.047428537 0.041338425 -0.04589728 -0.007317702 0.06763965
0.047011852 -0.00047355777 -0.06255944 -0.0072786007 -0.05098797 -0.025311895 -0.025767418 0.045523208
0.052658375 -0.07756508 -0.039415956 0.06438726 -0.04055376 -0.036075994 -0.032948293 0.0135124205
-0.005473978 0.022426847 0.012337407 -0.02655867 0.021052403 -0.056131527 0.04685483 -0.06495623
0.03014087 -0.0025908498 0.062846415 -0.084916994 -0.047995582 -0.038524676 -0.023699708 0.060365416
-0.020777745 -0.03708356 -0.058396857 -0.020139206 -0.046814717 -0.05651458 -0.030403277 0.00642016
0.02762528 -0.07659409 -0.076731764 0.054119136 -0.03160382 0.007938213 -0.016784603 -0.009075493
0.012816583 -0.0047233216 -0.03721181 0.033533897 0.042031866 -0.026060369 0.024094468 -0.015168185
0.08042107 0.03761089 -0.06689169 -0.030415036 -0.025402108 0.0076444577 -0.0928543 -0.00058065023
0.035904244 -0.007898999 0.08662925 0.017861264 0.014427026 0.05002091 -0.096325606 0.067262895
-0.03913674 -0.020004258 -0.07026746 -0.04637722 0.048832603 -0.015813164 0.048168126 0.022369869
0.043245167 -0.09289672 0.032693025 0.027638987 -0.048557095 0.0061510145 -0.02397359 -0.060591187
0.0112353675 -0.028104048 -0.021603877 -0.06349331 -0.054098453 -0.031310212 0.08462219 -0.07707657
-0.023429528 -0.04632424 -0.034934536 -0.015717385 0.11531667 0.018456101 0.007885379 0.014072506
-0.03724086 0.018760625 0.05904349 -0.01375391 -0.02987442 0.009540971 0.031939015 0.03310328
-0.06836073 -0.05868976 -0.030674677 -0.03480191 0.032782454 0.027088203 0.003322128 -0.012962862
0.04681204 -0.045128085 -0.039069373 -0.08283678 -0.006019457 -0.02621578 -0.020161074 0.0169049
-0.0078258645 0.03602732 0.042060196 -0.029029232 0.045171663 0.010325717 0.06267366 -0.010620581
00000000: 4cbd bf3c 0920 143d 75e1 80bd 2db2 6b3c
00000010: 0f15 0fbd d176 a1bc 3e3a 083d 8c4a 743d
00000020: 5eff 2dbd d514 00bc 2ac0 363c f11e 14bc
00000030: 69a2 29bc 8697 e93c 3486 c23c 6fa7 e2bc
00000040: 9dd1 69bd c5e1 cfbc f373 133d 16de 9abd
00000050: 907c debd e94f 673c 5548 94bd ee6c 4e3d
00000060: 16b7 a8bc b9e9 cfbb 5962 a4ba 997e 4dbd
00000070: 0387 843c 0e1b 95bc dd04 463c 7af0 503d
00000080: 0bcd 91bd 13aa 113d 4330 883d fbcd e5bc
00000090: 08a6 c2bd a8a1 e83c fe24 9dbd 9134 34bc
000000a0: 8e64 44bd 4523 fabc 8a1b 27bd a17b 9dbd
000000b0: a012 d03c 2d1e 9fbc 3935 58bc b7fc e13b
000000c0: 80b1 653c 3e15 6738 52a8 bb3c 0b85 123c
000000d0: 03b6 ef3a fa04 473c a715 1dbc 020a 54bc
000000e0: 515a 0f3d fc58 a0bc b019 45bc ef56 a33b
000000f0: e3d5 343c 305f 4c3d a0b0 47bd 87b0 e0bc
00000100: 90e8 23bc 9786 f8bc 7fb9 f8bc f787 a4bd
00000110: 1663 563d 72a0 0ebd a179 6cbd fcbb 8bbd
00000120: 2e1a d0bb b093 d1bd ebb1 5dbd 7756 6cbb
00000130: fea9 bcbc a13d c93c b5ae aebd 1490 64bd
00000140: 6e8b 883d 56a9 c5bb 66b3 d03b 6fb7 36bd
00000150: e6ea 05bd cf49 aa3d 78c5 63ba bd57 4fbd
00000160: ce47 623d 911f 3a3c 9ee9 e4ba f7e0 20bb
00000170: 6801 84bc 76be f43d d8bb 07bd d4bf a33c
00000180: 72df 4a3d b102 6dbd 742f d43c e7fa c33d
00000190: ec16 87bc 68ab e4bc e303 9dbd eff9 bdb9
000001a0: befd b73d 2e80 24bd 5027 9bbd 4a38 343d
000001b0: 0f2b 0dbd 9ce1 0c3c 0c6c 503d da0c 2ebd
000001c0: cdf0 7e3d 5749 d4bc 194d abbd 6d44 42bd
000001d0: 7b52 293d c9fe 3bbd 55c9 efbb a886 8a3d
000001e0: 808f 403d d947 f8b9 2a1f 80bd 5481 eebb
000001f0: c3d8 50bd e45a cfbc 3116 d3bc 8b76 3a3d
00000200: 4fb0 573d 71da 9ebd a072 21bd 78dd 833d
00000210: b31b 26bd 6cc4 13bd caf4 06bd 3363 5d3c
00000220: 0e5f b3bb 82b8 b73c d622 4a3c 9191 d9bc
00000230: 1776 ac3c 2cea 65bd daea 3f3d c607 85bd
00000240: fce9 f63c 3fcb 29bb 9fb5 803d f6e8 adbd
00000250: 0497 44bd 0dcc 1dbd e425 c2bc ba41 773d
00000260: 1736 aabc eee4 17bd 8b31 6fbd fafa a4bc
00000270: cac0 3fbd d57b 67bd 4b10 f9bc 3560 d23b
00000280: 694e e23c 5ddd 9cbd 8b25 9dbd 07ac 5d3d
00000290: 0273 01bd 470f 023c dd7f 89bc 60b1 14bc
000002a0: a5fc 513c 18c6 9abb 696b 18bd d75a 093d
000002b0: 9b29 2c3d 8e7c d5bc c361 c53c fb83 78bc
000002c0: cdb3 a43d e00d 1a3d 83fe 88bd f428 f9bc
000002d0: 1518 d0bc 5c7e fa3b 652a bebd c736 18ba
000002e0: 5410 133d ce6a 01bc ad6a b13d c951 923c
000002f0: 555f 6c3c bae2 4c3d 5c46 c5bd 21c1 893d
00000300: d94d 20bd f8df a3bc 63e8 8fbd 0af6 3dbd
00000310: b204 483d 9c8a 81bc f14b 453d 0441 b73c
00000320: d821 313d a340 bebd 1fe9 053d 286b e23c
00000330: cee3 46bd 738e c93b 4364 c4bc 772e 78bd
00000340: 8c14 383c 763a e6bc 9dfa b0bc c808 82bd
00000350: 5796 5dbd 233f 00bd 664e ad3d 52da 9dbd
00000360: 48ef bfbc 7cbe 3dbd 8417 0fbd bfc1 80bc
00000370: 252b ec3d 4031 973c ad31 013c 5e90 663c
00000380: df89 18bd e2af 993c 96d7 713d 1458 61bc
00000390: 33bb f4bc bc51 1c3c 7cd2 023d 4e97 073d
000003a0: b600 8cbd ac64 70bd 7649 fbbc 738c 0ebd
000003b0: e546 063d 14e8 dd3c 0fb8 593b 2f62 54bc
000003c0: fbbd 3f3d 3ad8 38bd 3507 20bd 54a6 a9bd
000003d0: dd3e c5bb 7ac2 d6bc d628 a5bc 257c 8a3c
000003e0: 0e38 00bc 6291 133d 5047 2c3d b6ce edbc
000003f0: ec05 393d 322d 293c 0c5b 803d f201 2ebc

action_model._continuous_distribution.mu.bias f4 [4]
0.00089425675 0.01192726 -0.00018366906 0.010846494
00000000: 8e6c 6a3a 8e6a 433c 4a97 40b9 7eb5 313c
