Assets/Scripts/Monster AI/James RL/Legacy/Brains/MoveToPlayer.onnx (onnx, 112530 bytes, 7 tensors)

network_body._body_endoder.seq_layers.0.weight f4 [128, 77]
0	0xbd9741be	-0.07385586
1	0x3dba531c	0.09097883
2	0x3d4bac98	0.049725145
3	0xbd77cae3	-0.060496222
4	0xbde9c614	-0.114147335
5	0x3c8ebc69	0.017423825
6	0xbe3a0bb6	-0.1816853
7	0x3d8dae2a	0.06917985
8	0x3da09499	0.07840843
9	0xbd803c82	-0.06261541
10	0xbb81f8ce	-0.0039664274
11	0x3d888b92	0.06667246
12	0xbdb4e804	-0.08833316
13	0xbe46994b	-0.19394414
14	0xbe10b099	-0.14129867
15	0x3dd0288f	0.10163986
16	0x3e8edb44	0.2790166
17	0xbd637747	-0.055533674
18	0xbdf067af	-0.11738526
19	0x3d8766dc	0.06611416
20	0x3dcadfad	0.09905944
21	0xbddf0b74	-0.108908564
22	0x3c45efeb	0.012081127
23	0xbdcc947b	-0.09989258
24	0x3e7162f0	0.23572898
25	0x3d0043d6	0.031314693
26	0xbe290901	-0.16507341
27	0x3d938e0a	0.07204826
28	0xbe448338	-0.19190681
29	0xbd5ec696	-0.054388605
30	0x3e585f36	0.2113007
31	0x3e05a463	0.1305099
32	0xbc66c9c5	-0.014086192
33	0xbe17977c	-0.1480388
34	0xbd4aa069	-0.049469385
35	0x3d30657b	0.04306553
36	0xbbf1eee6	-0.0073832152
37	0x3d4fe16d	0.050752092
38	0xbd236ccb	-0.039898675
39	0xbd60ba43	-0.054865133
40	0xbd0f078e	-0.034919314
41	0x3adaa5c8	0.0016681487
42	0x3bb88ac6	0.0056317775
43	0x3dc68afc	0.09694478
44	0xbda1f110	-0.07907307
45	0x3db9fa66	0.09080963
46	0x3e38efc8	0.1806022
47	0x3c515b3b	0.012778099
48	0xbd0d77b2	-0.03453798
49	0x3e4db9f3	0.20090465
50	0xbe8d8766	-0.27642363
51	0x3e212506	0.1573678
52	0x3d90cbe3	0.07070138
53	0xbadc4c68	-0.0016807439
54	0x3e5510b9	0.2080716
55	0x3e990173	0.29883918
56	0x3a73e847	0.00093043264
57	0xbe41993b	-0.18906109
58	0x3e5475d0	0.20748067
59	0x3d915c32	0.07097663
60	0x3de37f9a	0.111083224
61	0x3cb1ae0f	0.021689443
62	0x3e3463ab	0.17616145
63	0xbd67c767	-0.05658665
64	0xbdf29674	-0.11845103
65	0xbe337e95	-0.17528756
66	0xbe0666b0	-0.1312511
67	0x3dcbee6f	0.09957587
68	0xbd3b0a4b	-0.045664113
69	0x3e36ad0c	0.1783945
70	0xbeba0fb9	-0.3634012
71	0xbd92d23a	-0.07169004
72	0xbd54fc15	-0.051998217
73	0xbcbc34a3	-0.022974318
74	0xbd5ac539	-0.053410742
75	0x3e517158	0.20453393
76	0x3cf120b8	0.029434547
77	0x3c053162	0.00812945
78	0xbd0aff76	-0.033935033
79	0xbd18448f	-0.037174758
80	0x3d9ec09c	0.07751581
81	0xbd259847	-0.040428426
82	0xbdf66fc3	-0.120330356
83	0xbe0286f1	-0.12746789
84	0xbd86390d	-0.0655385
85	0x3d81a6ac	0.06330618
86	0x3d941615	0.07230774
87	0x3d0d3b5d	0.03448044
88	0xbdc58a0f	-0.09645473
89	0xbe0f26c8	-0.13979638
90	0xbdeef8ab	-0.116685234
91	0xbe0f47fe	-0.13992307
92	0xbde67eb4	-0.112546355
93	0xbe15f7d6	-0.14645323
94	0x3de0af6e	0.109709606
95	0xbe161a1c	-0.14658397
96	0x3eb9ad4e	0.36265033
97	0x3d76476c	0.060126707
98	0xbd87da1b	-0.06633397
99	0xbc2e5a76	-0.010641685
100	0xbd7d68c3	-0.061867487
101	0x3d9b8198	0.075930774
102	0x3e87c49c	0.2651719
103	0x3db4a3ac	0.088202804
104	0xbe076f4f	-0.13226055
105	0x3d3705e7	0.044683363
106	0x3d699db8	0.057035178
107	0xbcff3f73	-0.031158185
108	0xbcd5d0e6	-0.026100587
109	0x3dfbae94	0.122891575
110	0xbe817dbf	-0.2529125
111	0x3ddac3f1	0.10681904
112	0xbd4113cd	-0.047138024
113	0xbdcabc91	-0.098992474
114	0xbc81dd9d	-0.015852744
115	0xbd188a05	-0.037241
116	0x3d3b2262	0.045687087
117	0x3deeb5d3	0.11655774
118	0xbdb7e04e	-0.089783296
119	0xbd9a534f	-0.07535421
120	0x3d1e36df	0.038626548
121	0xbdc58e59	-0.09646291
122	0x3ba3850a	0.0049902247
123	0xbb35b550	-0.002772648
124	0x3e20c84f	0.15701412
125	0xbc3a729b	-0.011379863
126	0x3e56096a	0.20902029
127	0x3ccc2cf6	0.024923783
128	0xbda3cc43	-0.07997944
129	0xbdaf1e79	-0.08550734
130	0xbe18cfe6	-0.14923057
131	0x3d195273	0.037432145
132	0x3e389966	0.18027267
133	0x3d181420	0.037128568
134	0xbe2c5abc	-0.16831487
135	0x3e5e7fd2	0.21728447
136	0xbc11a02c	-0.008888286
137	0xbdb53271	-0.088475116
138	0xbc8d0578	-0.017214522
139	0x3dafb1a1	0.08578802
140	0x3dfceeff	0.123502724
141	0xbc2990c5	-0.010349457
142	0xbe267016	-0.16253695
143	0xbe068862	-0.13137963
144	0xbe1947d2	-0.14968804
145	0xbc1ff2cd	-0.009762478
146	0xbdd89e9a	-0.10577126
147	0x3e202932	0.15640715
148	0xbe0c717c	-0.13715166
149	0xbe64206a	-0.2227799
150	0x3d4854ba	0.048908927
151	0xbda7cdb3	-0.08193531
152	0x3ddfc0ef	0.10925471
153	0xbcc38b83	-0.023870235
154	0x3d33fbb5	0.04394122
155	0xbe1c3e01	-0.15258028
156	0xbd1ec7dc	-0.03876482
157	0xbd4d0c15	-0.05006035
158	0xbe05088d	-0.12991543
159	0x3d25d522	0.040486462
160	0xbda13aa5	-0.07872514
161	0x3e8a2676	0.26982468
162	0xbb4d848e	-0.0031359526
163	0xbd9e6122	-0.0773337
164	0x3dd519c9	0.10405309
165	0xbdf262c5	-0.11835245
166	0x3e0b90bc	0.1362943
167	0xbe0083b7	-0.12550245
168	0x3e022cb3	0.12712364
169	0x3cf1174f	0.02943006
170	0x3d109dd0	0.03530675
171	0x3c7f239c	0.015572455
172	0x3d11ac67	0.035564806
173	0xbd58a7c2	-0.05289436
174	0xbc00b6b1	-0.007856057
175	0x3ca9a701	0.020709516
176	0xbdb6437e	-0.08899592
177	0x3c243770	0.010022983
178	0x3d628445	0.055301923
179	0xbe2badd6	-0.16765532
180	0xbc0515ee	-0.008122904
181	0xbe1fb76f	-0.15597318
182	0xbd603394	-0.05473669
183	0x3e1a8a91	0.15091921
184	0x3e2dadad	0.16960783
185	0xbb50a006	-0.0031833663
186	0x3d5a3994	0.053277567
187	0xbdf6bf80	-0.120482445
188	0xbd053c8a	-0.032528438
189	0xbda66f6d	-0.081267215
190	0x3d9300dc	0.07177898
191	0x3daa507d	0.08316133
192	0xbe9f7775	-0.31145826
193	0xbe07f695	-0.13277657
194	0x3e30d702	0.17269519
195	0xbd6ef21f	-0.058336373
196	0x3ddb2015	0.106994785
197	0x3e173fc9	0.14770426
198	0xbd865098	-0.06558341
199	0x3dc60f65	0.09670905
200	0x3e338222	0.1753011
201	0xbc512a51	-0.012766437
202	0x3ee71b2e	0.45137924
203	0xbdf9c439	-0.121956296
204	0x3dfaa0c5	0.122376956
205	0xbd5f012e	-0.054444484
206	0xbd21fbb2	-0.039546676
207	0x3c698c9d	0.014254716
208	0xbbb47c80	-0.0055080056
209	0x3e1a95e4	0.15096241
210	0x3e544515	0.20729478
211	0xbdbc93c0	-0.092078686
212	0xbdd52e8d	-0.104092695
213	0x3df626e2	0.12019135
214	0xbe71e9a6	-0.23624286
215	0xbde49a72	-0.111622706
216	0x3e12894f	0.14310192
217	0xbd80cbd3	-0.062888764
218	0xbdd35327	-0.103185944
219	0x3c527afa	0.012846703
220	0x3e157b38	0.14597785
221	0x3da1e3ea	0.07904799
222	0xbc3f05ff	-0.011659144
223	0xbe151a51	-0.1456082
224	0x3d817a34	0.063221365
225	0xbdbf0535	-0.09327165
226	0x3c8c0e96	0.017096799
227	0x3d9b9282	0.075963035
228	0xbdcb7f22	-0.09936358
229	0x3d977bb7	0.073966436
230	0x3c88d8ca	0.016704936
231	0xbd8bc211	-0.068241246
232	0x3dd3c709	0.10340697
233	0xbd1a05af	-0.037603077
234	0xbe1a9b72	-0.1509836
235	0xbd9eaa43	-0.077473186
236	0x3e851b4e	0.25997394
237	0xbb6c1807	-0.0036025064
238	0x3dfb7b1f	0.12279343
239	0x3e99d72c	0.30046976
240	0x3d2c9c93	0.04214151
241	0xbe1dcea0	-0.15410852
242	0xbd10ffba	-0.03540013
243	0xbe15bbfb	-0.1462249
244	0x3df242b9	0.118291326
245	0x3d55d5e1	0.052205924
246	0xbb1b6fed	-0.0023717836
247	0xbdcef273	-0.10104837
248	0x3ccb8f58	0.024848625
249	0xbd98f436	-0.074684545
250	0x3cb4515f	0.022011457
251	0xbd0a0688	-0.033697635
252	0x3e1254d4	0.14290172
253	0xbe33012d	-0.17480917
254	0x3b5b5e40	0.0033472925
255	0x3d8da111	0.069154866

network_body._body_endoder.seq_layers.0.bias f4 [128]
0	0x3c0999d9	0.008398497
1	0x3941ef6f	0.0001849511
2	0xbb41d169	-0.002957428
3	0x3ba60aa3	0.005067186
4	0x3b28a19d	0.0025731095
5	0xbbcfc905	-0.006341102
6	0x3cdbfe64	0.026854701
7	0x3b41a96f	0.0029550453
8	0x3c44e462	0.012017341
9	0xba0d6328	-0.00053934986
10	0xba04aa74	-0.00050608
11	0xbb857bc2	-0.004073591
12	0x3bc04962	0.005868123
13	0xbb93f35f	-0.004515096
14	0x3ccd7311	0.025079282
15	0xb9521080	-0.00020033307
16	0x3aaf13c0	0.0013357326
17	0x3b194168	0.0023384932
18	0xbb7b5d02	-0.0038354998
19	0x3a33f1ce	0.000686434
20	0x3c2c6ef1	0.010524497
21	0xbb82269c	-0.0039718878
22	0x3ca8062c	0.020510755
23	0x3b69e031	0.0035686607
24	0xb9fd36a4	-0.0004829663
25	0xbcd56db5	-0.026053289
26	0x3bcdff66	0.0062865494
27	0xbc83d39d	-0.016092116
28	0x3ba39969	0.004992653
29	0x3c56b032	0.013103532
30	0xbbd71f9b	-0.006565047
31	0xbc0deb96	-0.008662125
32	0x3c0c2e10	0.008555904
33	0x39171b2b	0.00014410603
34	0xbbac018a	-0.005249207
35	0xbaf127b6	-0.0018398676
36	0x3bd0c2d4	0.0063708816
37	0x3c4f8dfa	0.012668127
38	0x3c832137	0.016007049
39	0xbc48bf35	-0.012252619
40	0x3a177191	0.00057771156
41	0xbca43cc0	-0.0200485
42	0x3ba42dd3	0.0050103455
43	0x3b7fba4f	0.003902096
44	0xbbd55d1f	-0.006511345
45	0xbc395baa	-0.011313358
46	0x3cbcb4e8	0.023035482
47	0xbbf8d7d4	-0.007594088
48	0xbbed1842	-0.007235558
49	0x3c109fb6	0.008827141
50	0x3c11b78c	0.008893859
51	0x3c22c03e	0.009933529
52	0xbc0e0a61	-0.008669467
53	0xbc48ba8a	-0.012251506
54	0xbbcba67b	-0.0062149144
55	0x3c1e53b9	0.009663516
56	0x3ba75779	0.005106863
57	0x39a8eec9	0.00032221366
58	0x3c0748a7	0.008257068
59	0x3c1f5695	0.009725233
60	0x3bf7223b	0.0075419224
61	0xbc13a426	-0.009011304
62	0x3b877510	0.004133828
63	0x3b134f25	0.0022477594
64	0xb7563b38	-1.2769182e-05
65	0x3c383cb7	0.011244944
66	0x3b8b5e5f	0.0042531933
67	0xbc0ff43c	-0.008786257
68	0x3c84212b	0.016129097
69	0x3c0699f9	0.008215421
70	0x3bcfa86e	0.006337217
71	0x3c04b6a7	0.008100188
72	0xbb8440b2	-0.0040360326
73	0x3cf26e8f	0.029593734
74	0xb932287a	-0.00016990482
75	0x3b26eaba	0.0025469498
76	0x38844ab7	6.308167e-05
77	0x3cb21284	0.021737345
78	0x3c49b500	0.01231122
79	0x3ba1b978	0.0049354397
80	0x3b818586	0.003952685
81	0x3b8f4b88	0.0043730177
82	0xbc89319f	-0.016747294
83	0x3b85597c	0.0040695053
84	0x3c84651c	0.016161494
85	0x3c892b82	0.016744379
86	0x3c13c403	0.009018901
87	0xbb4c7e3f	-0.0031203178
88	0xbb1cdf77	-0.0023936906
89	0x3c214817	0.009843848
90	0x3c5677e7	0.01309011
91	0xba925bf6	-0.0011166323
92	0xbbeab72c	-0.007162949
93	0x3ae5bff4	0.001752852
94	0xbb5e8ab2	-0.003395718
95	0x3b37cf03	0.0028046973
96	0x3bd11951	0.006381192
97	0x3b78a0ad	0.0037937567
98	0xb9865e1f	-0.00025628597
99	0x3baf7c39	0.0053553847
100	0x3c032f5c	0.008006897
101	0x3abebe14	0.0014552497
102	0x3b8a7d21	0.0042263423
103	0x3ad51e68	0.0016259672
104	0x3c4ee1dd	0.012627092
105	0xbaca75ca	-0.0015446481
106	0x3bb39e16	0.005481492
107	0x3c5bb434	0.013409663
108	0x3c5b9f4b	0.013404678
109	0xbc36c784	-0.011155967
110	0x39d34145	0.00040293686
111	0xbc8d0af8	-0.017217144
112	0x3c050ea1	0.008121164
113	0xbbcf9c85	-0.0063357973
114	0xbb44e88a	-0.003004583
115	0x3c4b9a8b	0.012426983
116	0x38b00776	8.393724e-05
117	0x3bf17be9	0.0073695076
118	0x3b63c588	0.003475519
119	0x3be09014	0.006853113
120	0x3bb49404	0.005510809
121	0x3c3171d4	0.010830361
122	0xbb14d709	-0.0022711179
123	0xbb5a38d2	-0.0033298028
124	0x3c84f348	0.016229287
125	0x3c887488	0.016657129
126	0x3baa230e	0.005192167
127	0x3b5c3c1e	0.0033605169

network_body._body_endoder.seq_layers.2.weight f4 [128, 128]
0	0x3df35465	0.11881331
1	0x3d0bc09a	0.034119226
2	0x3d92b9ad	0.07164321
3	0xbcad330f	-0.02114251
4	0xbd66eb86	-0.056376956
5	0xbcc6e797	-0.024280353
6	0xbc0aca53	-0.008471089
7	0x3db759d5	0.08952681
8	0x3d5b3826	0.053520344
9	0xbd121824	-0.035667554
10	0xbe667056	-0.2250379
11	0x3d5325ce	0.051549725
12	0xbd33816a	-0.04382459
13	0xbdd78a24	-0.10524395
14	0xbce0ec39	-0.02745639
15	0xbc73c8c9	-0.014879414
16	0xbdda1157	-0.106478386
17	0xbe33277d	-0.17495532
18	0x3d61d8f5	0.055138547
19	0xbe019fe7	-0.12658654
20	0xbdcb8b30	-0.09938657
21	0xbdab0ac5	-0.083516635
22	0x3d7d8107	0.06189063
23	0xbdbae5b2	-0.09125842
24	0xbd452d42	-0.048138864
25	0xbdd03ce3	-0.10167863
26	0xbd64101b	-0.055679422
27	0x3cf8b720	0.030360758
28	0xbdc1ee57	-0.09469288
29	0x3e165c68	0.14683688
30	0x3d6e1461	0.058124904
31	0xbe5529df	-0.20816754
32	0x3d107c7c	0.035274968
33	0xbde047c1	-0.10951186
34	0xbdab2b40	-0.08357859
35	0xbd6645c5	-0.05621888
36	0x3e00ff98	0.12597501
37	0xbcb03570	-0.021509856
38	0xbdc6e753	-0.0971209
39	0x3d887379	0.0666265
40	0x3e310b4e	0.17289469
41	0x3d1a80cf	0.037720498
42	0x3cd725d5	0.026263157
43	0x3d065e97	0.03280505
44	0xbda91e0f	-0.08257686
45	0xbd3e160e	-0.04640775
46	0x3d073e47	0.033018377
47	0x3e05c55b	0.13063566
48	0x3d9dd968	0.077074826
49	0x3d6ebb11	0.05828387
50	0x3d822e9b	0.063565455
51	0xbd61afbb	-0.05509923
52	0x3d39a656	0.045324646
53	0xbdaf5f40	-0.08563089
54	0x3daf4be3	0.08559396
55	0xbd2ceba5	-0.042216916
56	0x3d73f19f	0.0595566
57	0xbcf2312b	-0.02956446
58	0x3dabd6c9	0.083905764
59	0x3c4b3188	0.012401946
60	0x3d28469c	0.041082963
61	0x3c732fbc	0.014842924
62	0xbd576d2a	-0.05259434
63	0x3dd19ab1	0.10234583
64	0xbbc5fd7e	-0.0060421815
65	0x3d8659c6	0.06560092
66	0x3c007fc8	0.007842965
67	0xbd91f34b	-0.071264826
68	0xbe38d1c5	-0.1804877
69	0xbd32c616	-0.04364594
70	0x3dc1b7dd	0.09458897
71	0xbd939ecd	-0.07208023
72	0xbde7a0d0	-0.113099694
73	0x3d82246a	0.06354602
74	0xbd960232	-0.073246375
75	0xbc5c5ff1	-0.013450609
76	0x3dae9b86	0.085257575
77	0x3cc0d429	0.023538666
78	0xbda772e6	-0.08176212
79	0xbdc6da43	-0.09709599
80	0xbce3a5f0	-0.027789086
81	0xbe299e45	-0.16564281
82	0x3cb43c82	0.022001509
83	0xbe4230fd	-0.18964
84	0xbcbe068c	-0.023196481
85	0xbda2134a	-0.07913835
86	0x3db5dde2	0.088802114
87	0x3c1be9e7	0.009516216
88	0x3d49a873	0.04923291
89	0x3d5393d7	0.051654663
90	0x3d8f9f3b	0.07012793
91	0xbdae6e3a	-0.08517118
92	0xbbfc86d7	-0.007706504
93	0xbcff6269	-0.031174855
94	0x3d263410	0.040576994
95	0xbbe25bf5	-0.006907935
96	0xbcb9dc01	-0.022687914
97	0xbe18d83f	-0.14926241
98	0xbd24f1b0	-0.040269554
99	0xbc8fdfbe	-0.017562743
100	0x3d370908	0.044686347
101	0xbd9fcd68	-0.0780285
102	0xbe376a15	-0.17911561
103	0xbd789b00	-0.060694695
104	0xbeae73e1	-0.34072784
105	0x3ca6b32a	0.020349104
106	0xbd7c1258	-0.06154093
107	0xbe36c290	-0.17847657
108	0x3d770481	0.06030703
109	0x3e2f4819	0.17117347
110	0x3d4265ec	0.04746048
111	0xbcd9736e	-0.026544299
112	0x3deb9f28	0.11504966
113	0xbd7f14de	-0.06227576
114	0xbe3fc576	-0.18727669
115	0xbdc0e571	-0.094187625
116	0x3bc3cc93	0.005975315
117	0x3e02ed54	0.12785846
118	0xbe21db04	-0.15806204
119	0xbc8f3473	-0.017481064
120	0x3cb0d63a	0.021586526
121	0xbe05cdc1	-0.1306677
122	0xbc739788	-0.014867671
123	0x3d25113c	0.04029964
124	0xbd819629	-0.06327469
125	0x3d8f4c4b	0.069969736
126	0x3c0d9eba	0.0086438
127	0x3bc5fef9	0.006042358
128	0x3dd127d1	0.102126725
129	0x3d8f3df2	0.06994237
130	0xbd985657	-0.07438343
131	0x3d6d55ab	0.057943027
132	0xbd4c41e5	-0.04986753
133	0xbcdbb2ca	-0.026818652
134	0xbdef507a	-0.116852716
135	0x3e0fc445	0.14039715
136	0xbc6dc1d4	-0.014511544
137	0xbd46f28b	-0.04857115
138	0xbc96cf37	-0.018409355
139	0x3cbd42ae	0.023103084
140	0xbe2b45e5	-0.16725881
141	0xbe4939f0	-0.19651008
142	0x3c718da7	0.014743245
143	0x3da2e568	0.07953912
144	0xbd5b1710	-0.05348879
145	0x3d5c3e92	0.05377061
146	0x3dea46d1	0.114392884
147	0x3d8543f1	0.065070994
148	0x3d806ea6	0.062711045
149	0xbe139858	-0.14413583
150	0x3e16ef0f	0.14739631
151	0x3dde63b2	0.10858859
152	0xbdd964d8	-0.106149375
153	0x3dcdbfae	0.100463256
154	0x3cc811be	0.024422523
155	0x3cad745d	0.02117365
156	0xbcce3814	-0.025173225
157	0x3d0f947f	0.035053726
158	0x3da37920	0.07982087
159	0x3c5f6fce	0.013637496
160	0xbd289e48	-0.041166574
161	0xbd8513f8	-0.06497949
162	0xbde00d3a	-0.10940023
163	0x3d63b1b5	0.055589397
164	0xbe31f94e	-0.17380258
165	0x3c525d07	0.012839562
166	0xbc1d5593	-0.009602922
167	0xbd820484	-0.063485175
168	0xbe1e8644	-0.15480906
169	0x3dcf2d0b	0.10116013
170	0x3e135e69	0.14391483
171	0xbcd6f09a	-0.026237775
172	0x3d80ceaa	0.06289418
173	0xbe4d6bdd	-0.20060678
174	0x3c01179a	0.007879162
175	0x3b919ba6	0.0044436036
176	0xbda78ffa	-0.08181758
177	0xbd85028c	-0.064946264
178	0xbd9c30e1	-0.076265104
179	0x3d6fa905	0.0585108
180	0xbe313e12	-0.17308834
181	0x3ded8beb	0.11598953
182	0xbd53f7c2	-0.051749952
183	0xbc1ba55c	-0.009499874
184	0xbd293e84	-0.041319385
185	0xbe1d854f	-0.15382884
186	0x3d52d774	0.051475003
187	0xbcce35b6	-0.025172096
188	0xbda29ed7	-0.079404525
189	0xbdcc4c81	-0.099755295
190	0x3e18b6bb	0.14913456
191	0xbca155f5	-0.019694308
192	0xbcb529ac	-0.022114597
193	0x3d87f29a	0.066380695
194	0xbd33956e	-0.04384368
195	0xbde53d03	-0.11193278
196	0xbd561a3e	-0.05227112
197	0x3e1e1dc3	0.1544104
198	0x3dcba0c6	0.099427745
199	0x3e01d262	0.12677911
200	0xbe00af8e	-0.12566969
201	0xbb8268c4	-0.003979774
202	0xbd296194	-0.041352823
203	0xbe0363c7	-0.12831031
204	0x3dbb8bc9	0.09157521
205	0xbce8a9a2	-0.0284012
206	0xbe2a91a4	-0.1665712
207	0xbce52d40	-0.027975678
208	0x3dbd9455	0.09256808
209	0x3e59df3e	0.21276566
210	0x3d161a5e	0.03664624
211	0xbdb86639	-0.090038724
212	0xbd4d7f2f	-0.05017012
213	0xbd5d9c30	-0.05410403
214	0xbd8a8956	-0.06764476
215	0xbd4d2308	-0.050082237
216	0xba589e34	-0.000826332
217	0x3d77b4ba	0.06047509
218	0x3dc48e27	0.09597426
219	0x3e0c785f	0.13717793
220	0x3da6a605	0.081371345
221	0x3e70076e	0.23440334
222	0xbdb3301b	-0.0874941
223	0xbc8975fb	-0.01677989
224	0x3d93b24a	0.0721174
225	0x3c462cc7	0.012095637
226	0xbdf711fc	-0.12063977
227	0x3cea39de	0.028592046
228	0xbda9d994	-0.08293453
229	0x3dc74cc0	0.09731436
230	0x3bb1de2c	0.0054280963
231	0x3d4fb81a	0.050712682
232	0x3de5c5d8	0.11219376
233	0xbd4bb321	-0.049731378
234	0x3ccb4281	0.024811985
235	0x3dac2143	0.08404782
236	0xbd794ae2	-0.06086243
237	0x3e21c209	0.15796675
238	0x3c1bf8e6	0.009519791
239	0xbbbfed67	-0.005857158
240	0x3c833c94	0.016020097
241	0x3dd0b5e1	0.10190941
242	0x3e013502	0.12617877
243	0x3c690743	0.014222923
244	0xbd961103	-0.073274635
245	0x3dd3f4eb	0.10349449
246	0x3d3eb2a9	0.046557102
247	0xbcd7b612	-0.026331935
248	0xbc76f804	-0.01507378
249	0x3e29a343	0.16566186
250	0xbd309c71	-0.043117944
251	0xbe115c77	-0.14195429
252	0x3c824b6a	0.0159051
253	0xbc04b6c8	-0.008100219
254	0xbd4a80bb	-0.049439173
255	0x3dd26a1c	0.10274145

network_body._body_endoder.seq_layers.2.bias f4 [128]
0	0xbc2c77f2	-0.010526644
1	0x3ba37fff	0.0049896236
2	0x3bc7dfff	0.0060997005
3	0xbb6d5d89	-0.0036219081
4	0xbb39ae18	-0.0028332528
5	0x3bd98550	0.0066382065
6	0x3bebacf7	0.00719225
7	0xb8baba1c	-8.903837e-05
8	0x3c1ca29b	0.009560253
9	0xb9957b92	-0.00028511562
10	0xbc0a0486	-0.00842393
11	0x3a1e06fb	0.0006028262
12	0x3a944ca1	0.0011314341
13	0x3b92b78f	0.0044774483
14	0xbc1925fd	-0.009347436
15	0x3c477cda	0.012175763
16	0x3ad87cb5	0.0016516658
17	0x3a5c6017	0.00084066525
18	0x3c40971b	0.011754776
19	0x3b8fe6aa	0.004391511
20	0x3bb8f8b7	0.0056448835
21	0xbc06a122	-0.008217128
22	0x3b899d35	0.0041996487
23	0x3b06442c	0.002048741
24	0x3c00a8af	0.007852717
25	0xb8814e36	-6.165767e-05
26	0x3bb50a59	0.005524915
27	0xbc49a51b	-0.012307431
28	0x3be653e7	0.007029045
29	0x3c84e99e	0.016224679
30	0xbba11352	-0.0049156332
31	0x3b4802ba	0.0030519203
32	0xba7e5845	-0.0009702484
33	0x39893e52	0.00026177109
34	0x3b8da77d	0.0043229447
35	0x3cb9f112	0.02269796
36	0x3c30d50f	0.010792985
37	0xbbfda0c0	-0.00774011
38	0x3c18303d	0.009288845
39	0xbb86d247	-0.0041144225
40	0x3be2851f	0.006912842
41	0xbb3d7e0b	-0.0028914239
42	0x3b3b631a	0.0028593005
43	0x3be42674	0.006962592
44	0x3a958e26	0.0011410161
45	0xbc6e7904	-0.01455522
46	0x3c3015d0	0.010747388
47	0xbae56c5f	-0.001750361
48	0x3bff2a8b	0.007787054
49	0xbc370654	-0.011170942
50	0x3a910a98	0.0011065779
51	0x3bc19b87	0.005908433
52	0xbb2c0e73	-0.002625373
53	0x3aa7af4f	0.0012793335
54	0xbb8bf5f1	-0.004271262
55	0xbc1d8944	-0.009615246
56	0x3c31f0a7	0.010860599
57	0x3c350506	0.011048561
58	0xbb85c54c	-0.0040823575
59	0x3bc0d636	0.005884911
60	0x3b04b8be	0.0020251716
61	0x3c21cf93	0.00987615
62	0x3c40b131	0.011760996
63	0xbb82c5a7	-0.003990847
64	0x3b4f9453	0.0031674101
65	0x3ba25da8	0.0049550124
66	0xb9caec34	-0.00038704427
67	0xbc0bb55d	-0.008527127
68	0x3b94c5b8	0.0045401715
69	0x3b0b39bb	0.0021244127
70	0xbb6ed284	-0.0036441395
71	0x3c0864dc	0.008324828
72	0x3bbd696b	0.005780389
73	0xbbc613fb	-0.0060448623
74	0xbc22ea0f	-0.009943499
75	0xbb9ea64d	-0.004841602
76	0xbb9dfd75	-0.004821474
77	0x3bb93afe	0.0056527844
78	0x3b889d75	0.004169161
79	0xbbbd1db2	-0.005771362
80	0xba67f366	-0.000884822
81	0x3b1c8b6d	0.0023886815
82	0xba82be54	-0.0009974935
83	0xbac9e8ba	-0.0015404441
84	0x3c71e67c	0.014764424
85	0x3c4cbf9f	0.012496858
86	0x3c29ae44	0.01035649
87	0x3b8b43fd	0.004250048
88	0x3c1861d6	0.00930067
89	0x3b91745c	0.00443892
90	0x3be0e305	0.0068630003
91	0xbbc6c11b	-0.0060655004
92	0x3a8dc6f0	0.0010816734
93	0xbbc0ba41	-0.005881578
94	0x3c1076e7	0.008817411
95	0xbbeec54d	-0.0072867037
96	0xbb2d1d50	-0.0026415177
97	0x3bb0a508	0.005390767
98	0xbc462a72	-0.012095081
99	0x3b811705	0.0039395117
100	0x3af76e69	0.0018877509
101	0x3c2515ed	0.010076028
102	0x3c322598	0.010873221
103	0x3c22d75c	0.009939041
104	0x3bf9a995	0.0076190927
105	0xbc1715c8	-0.009221502
106	0x3c280cea	0.010256985
107	0x3c30cf76	0.01079165
108	0x3bc9bd31	0.0061565866
109	0x3ca0f961	0.019650163
110	0xbc338ec1	-0.010959328
111	0x3c2ff260	0.010738939
112	0x3b761f5c	0.0037555313
113	0xbb7852c8	-0.0037891138
114	0x3c0e175d	0.008672562
115	0xbbabf033	-0.00524714
116	0xbbe135d6	-0.006872873
117	0x3bc9c5a1	0.0061575924
118	0xbad0b0af	-0.0015921796
119	0xbbade91a	-0.005307329
120	0x3c48f759	0.0122660035
121	0x3bc8919c	0.0061208736
122	0xbc566aef	-0.013087018
123	0xbb0a9f01	-0.0021151903
124	0x3c5ef70a	0.013608703
125	0xbaabd6f5	-0.0013110327
126	0x3c0651f1	0.008198247
127	0x3c7c483b	0.01539808

action_model._continuous_distribution.log_sigma f4 [1, 4]
0	0xbcd31e8f	-0.025771407
1	0xbcdb8aa6	-0.026799511
2	0xbc6ed535	-0.0145772
3	0xbbe1b15b	-0.0068875975

action_model._continuous_distribution.mu.weight f4 [4, 128]
0	0xbb357f6a	-0.0027694353
1	0x3a2074b4	0.0006120906
2	0x3c7f90ce	0.015598489
3	0x3b0045d1	0.0019572864
4	0xbc7f4196	-0.015579602
5	0x3c20e4ad	0.009820146
6	0x3d15dd90	0.03658825
7	0x3c873dae	0.016508903
8	0xbb8a1cb2	-0.0042148465
9	0xbd7a7e3a	-0.061155535
10	0xbcbdbe9e	-0.023162182
11	0x3d4035c8	0.04692629
12	0xbb906692	-0.0044067586
13	0xbd3b28c9	-0.045693193
14	0xbc4758e3	-0.012167188
15	0x3d0d716e	0.034532003
16	0x3c0c5309	0.008564719
17	0x3b16b2fc	0.0022994867
18	0x3cb58a86	0.02216078
19	0x3c3f135a	0.011662329
20	0xbb7c95b9	-0.003854139
21	0x3c12122c	0.008915465
22	0x3c3a26dc	0.011361804
23	0xbdcf02ba	-0.10107942
24	0xbb940e20	-0.0045182854
25	0x3c3e9cb7	0.011634043
26	0xbc97ed12	-0.018545661
27	0x3b29c57f	0.002590507
28	0x3c8c4c35	0.017126182
29	0x3d8674b8	0.06565231
30	0x3ceaf260	0.028680027
31	0x3d432375	0.047641236
32	0xbcf89343	-0.030343657
33	0xbd35ae48	-0.04435566
34	0xbd5d0086	-0.053955577
35	0x3d618918	0.055062383
36	0x3cd6edc4	0.026236422
37	0x3d045061	0.032303218
38	0x3bf47dab	0.00746127
39	0x3caf4821	0.021396698
40	0x3d3caa9b	0.04606114
41	0x3d05efdc	0.03269945
42	0x3bb5944a	0.005541359
43	0x3ac8215b	0.001526873
44	0xbce3563e	-0.027751084
45	0x3cdc5184	0.026894338
46	0x3d3510ba	0.044205405
47	0xbaaec95d	-0.0013335157
48	0xbbec6daa	-0.0072152214
49	0xbb75b75c	-0.0037493324
50	0xbce49e13	-0.027907407
51	0xbd2726da	-0.040808536
52	0x3cebf623	0.02880389
53	0xbb3bef90	-0.0028676726
54	0x3c719860	0.014745802
55	0xbc38650d	-0.011254561
56	0x3c8b63bc	0.01701533
57	0x3d5a745c	0.053333625
58	0x3cea17b5	0.028575758
59	0x3ce2870a	0.027652282
60	0x3c6c7d25	0.014434134
61	0xb98e6b9d	-0.0002716453
62	0x3cdfbfd5	0.027313152
63	0x3cc62b5a	0.024190594
64	0x3c9de20e	0.01927283
65	0xbc70c5c2	-0.014695587
66	0xbd2d0310	-0.04223925
67	0x3b4c5451	0.0031178186
68	0xbc615e29	-0.01375536
69	0x3d1da15b	0.03848396
70	0xbbf0244a	-0.0073285447
71	0xbca7e90c	-0.020496868
72	0x3d5e21fb	0.054231625
73	0xbccb4925	-0.024815151
74	0x3c9a58ef	0.018841235
75	0x3b7e3501	0.0038788917
76	0x3c8148c0	0.01578176
77	0xbd3703c3	-0.04468132
78	0x3b079bc9	0.002069222
79	0x3b0bb56f	0.002131786
80	0x3d29247f	0.04129457
81	0xbd108122	-0.0352794
82	0xbd3fd616	-0.046835028
83	0x3cd63b56	0.02615134
84	0x3d68609a	0.05673275
85	0xbcf5bf6e	-0.029998507
86	0xbc51ab18	-0.01279714
87	0xbce6534e	-0.028115895
88	0xbca5039b	-0.02014332
89	0xbc043fd1	-0.008071856
90	0x3d545e25	0.051847596
91	0x3cf6f14c	0.030144356
92	0x3aeab9e1	0.001790818
93	0xbc7c98a2	-0.01541725
94	0xbd04e5a5	-0.03244557
95	0xbcaff340	-0.021478295
96	0xbcc39796	-0.023875993
97	0xbc1b39bf	-0.009474217
98	0xbae5a7a6	-0.0017521277
99	0xbc023e7d	-0.007949469
100	0x3c2eb8da	0.010664189
101	0x3bb45563	0.005503343
102	0xbd879356	-0.06619899
103	0xb937ab26	-0.00017515998
104	0xbd678bd9	-0.056529853
105	0xbbcd8dc3	-0.006273003
106	0xbcc3a066	-0.023880195
107	0x3c9bf6d0	0.019038588
108	0xbd04c4bb	-0.03241418
109	0x3d38a3b3	0.04507799
110	0x3c334105	0.010940795
111	0xbd41d0d7	-0.047318306
112	0xbc94fc33	-0.018186664
113	0x3bebe2a6	0.0071986495
114	0x3c88eb1f	0.016713677
115	0xbbef7549	-0.0073076827
116	0xbbeb63b0	-0.0071835145
117	0xbd5916f5	-0.05300041
118	0x3d340454	0.04394944
119	0x3c02b93f	0.007978736
120	0x3d113ccb	0.035458367
121	0x3d746dd0	0.059675038
122	0x3b3b4ea8	0.0028580818
123	0xbbd62ca6	-0.006536084
124	0xbd30143f	-0.04298806
125	0x3cad8cf9	0.021185385
126	0xbd19160e	-0.03737455
127	0xbd57d59b	-0.052693944
128	0x383afb1f	4.457973e-05
129	0x3c7897e0	0.015172929
130	0x3c6bf579	0.014401787
131	0xbc0a4394	-0.008438963
132	0x3c57c888	0.013170369
133	0x3ceb00ca	0.0286869
134	0xbc8d06a6	-0.017215084
135	0x3c4569c2	0.01204914
136	0x3d3c8b83	0.046031486
137	0xbd0ecbcd	-0.03486233
138	0x3c9c30ca	0.019066233
139	0xbd4c694b	-0.049905103
140	0xbb7d975a	-0.003869495
141	0xbd20985c	-0.0392078
142	0x3c3c770b	0.011502991
143	0x3d3d0034	0.04614277
144	0xbc699d02	-0.014258625
145	0x3c59359b	0.013257409
146	0x3d12279f	0.035682317
147	0x3c771f1e	0.0150831025
148	0x3cb6d944	0.022320397
149	0xbc546bd7	-0.012965164
150	0x3be41c99	0.006961417
151	0x3a511b8c	0.0007976822
152	0x3cfa9948	0.030590668
153	0x3b607006	0.0034246459
154	0x3cc502ed	0.024049247
155	0x3cc7c5ab	0.024386248
156	0xbbd1fb45	-0.0064081275
157	0x3d1f78d3	0.038933586
158	0x3a5aec0a	0.00083512126
159	0xba38342e	-0.00070268183
160	0xbc3abda6	-0.011397755
161	0xbbc9535a	-0.0061439695
162	0x3b83ece9	0.0040260446
163	0x3cc9d5b6	0.024638038
164	0x3cf02ba0	0.029317677
165	0xbc98f35b	-0.018670728
166	0x3cba1bb9	0.022718297
167	0xbad37e5d	-0.0016135682
168	0xbaf97065	-0.0019030689
169	0xbaa86d41	-0.0012849943
170	0xbd378a5a	-0.044809677
171	0x3d009174	0.031388715
172	0xbc6b3d28	-0.0143578425
173	0x3c447017	0.011989615
174	0x3aba8a9c	0.0014231983
175	0x3af1d9d2	0.0018451756
176	0xbd19ef17	-0.03758153
177	0xbd1059c1	-0.035241846
178	0x3c6e264d	0.014535499
179	0x3d08e0a1	0.033417348
180	0xbc599519	-0.013280177
181	0xbab8a4ac	-0.0014087162
182	0xbc329906	-0.010900741
183	0x3a1c119e	0.0005953553
184	0x3c0e3959	0.008680665
185	0x3d161c15	0.036647875
186	0xbc1cd62e	-0.009572549
187	0x3c3f7330	0.011685178
188	0x3c6d9684	0.014501218
189	0x3d0848cc	0.03327255
190	0x3cec39fe	0.028836247
191	0xbcc1f210	-0.023674995
192	0x3b8af891	0.004241057
193	0xbc8fb23d	-0.017541045
194	0x3c5b9f15	0.013404627
195	0xbd319796	-0.043357454
196	0x3c9a4f8c	0.018836759
197	0xbcf17d8d	-0.029478813
198	0xbcd53a15	-0.026028672
199	0x3d2d0aaa	0.0422465
200	0xbd151641	-0.036398176
201	0xbcf6fe8d	-0.030150676
202	0xbd0d9f9e	-0.03457605
203	0xba1a19fe	-0.0005878507
204	0xbb884ace	-0.004159308
205	0x3d0c00c5	0.03418042
206	0x3c1210ef	0.00891517
207	0xbbcbf0c6	-0.006223771
208	0x3ad6150e	0.0016333179
209	0xbcca1560	-0.024668396
210	0xbac8cf30	-0.0015320536
211	0x3a34cb1e	0.0006896722
212	0x3d25d094	0.04048212
213	0x3c5894e6	0.013219094
214	0x3c790d85	0.015200977
215	0xba7efa11	-0.0009726594
216	0x3cc3983b	0.0238763
217	0x3c379d2f	0.011206909
218	0x3bfd9cc1	0.007739634
219	0x3b81394f	0.0039435993
220	0x3c1b98d8	0.00949689
221	0x3b4c1768	0.003114188
222	0x3d27c87c	0.04096268
223	0xbd060fa1	-0.03272975
224	0xbca612ba	-0.020272601
225	0x3cb8c596	0.022555154
226	0xbccba21a	-0.02485757
227	0xbd097f62	-0.033568747
228	0xbb48dfea	-0.0030651041
229	0x3d3c42f2	0.04596228
230	0xbb9b94f6	-0.004747982
231	0x3d367296	0.04454287
232	0xbbdf5d07	-0.0068165096
233	0x3bc40fe0	0.0059833378
234	0xbcd8588a	-0.026409406
235	0x3d2cc842	0.04218317
236	0x3cc21c0b	0.023695013
237	0x3d2a41d9	0.041566703
238	0xbc7252b4	-0.014790226
239	0xbaa46f8e	-0.0012545453
240	0x3c2592bb	0.010105784
241	0xbd1a538f	-0.037677344
242	0x3d1137a5	0.035453457
243	0xbc925b96	-0.017865937
244	0xbb9ae598	-0.0047270767
245	0xbc7d696f	-0.015467032
246	0xbcfda594	-0.030962743
247	0xbc181765	-0.009282921
248	0x3c8996a0	0.016795456
249	0xbcfadbbc	-0.030622356
250	0xbd0c4ef3	-0.03425498
251	0xbc19d160	-0.009388298
252	0x3cbf6973	0.023365712
253	0x3c5d2fdc	0.01350018
254	0xbcc61a7b	-0.024182549
255	0x3cc3e87e	0.023914572

action_model._continuous_distribution.mu.bias f4 [4]
0	0x3ac704ad	0.0015183889
1	0x3c4cbcbe	0.0124961715
2	0x3a618faf	0.00086044794
3	0x3ae9eac6	0.0017846457
